РНС/Лаб 2/cifar100_CNN.onnx (onnx, 236970 bytes, 8 tensors)

seq.1.weight f4 [32, 3, 5, 5]
-0.012510745 0.04873124 0.06037292 0.16064073 0.18065676 0.018423593 0.13628426 -0.06307916
-0.059363827 -0.055079233 -0.024271855 -0.0863232 0.12502985 0.11256446 -0.0425294 0.006847382
0.05836119 0.11160262 0.022436647 0.09449899 0.07440996 -0.09266614 -0.07131417 0.08358986
0.05257641 0.10630011 -0.1190828 -0.09465974 -0.047218602 0.08100645 0.01747448 0.010156617
-0.03114718 -0.09199625 0.032517713 -0.11404727 0.050266393 0.1596592 -0.04949274 -0.09941079
0.017197635 0.06945608 -0.07186127 0.063174374 0.05149833 -0.07386933 0.043316804 -0.12988745
-0.095274575 0.017323729 -0.088723175 -0.03529914 -0.03359864 -0.057507858 0.12305192 0.013666122
0.059309203 -0.0034513741 -0.13460252 -0.14968003 0.030724062 -0.10501196 0.12404091 0.119167
-0.16687724 0.02911015 -0.08225298 -0.008108022 0.025802523 -0.09995418 0.037514787 0.001296686
-0.19372946 -0.10504465 0.06429002 -0.023434862 -0.04908408 0.1340648 0.068747126 -0.08512413
0.037736613 0.06974006 0.12809399 0.11143507 0.110013865 0.113708116 0.068830244 -0.0679052
-0.044492815 0.05544823 -0.0733803 -0.06421386 -0.03182901 -0.002017997 -0.111457415 0.02291692
-0.003502167 0.07754447 -0.12053455 -0.009586172 -0.09940407 0.06293268 0.13082892 -0.034498893
0.050493497 -0.048735958 0.18127444 0.1772905 0.12979245 0.14045861 0.10889723 0.16990657
0.005254524 -0.0004580718 -0.09318209 -0.03497124 0.004985293 0.1399812 -0.008715313 -0.09937397
-0.0028987192 0.057578713 0.11178894 -0.019356953 0.022504387 -0.106359646 0.007602389 -0.08160631
0.085609674 0.061200514 0.096247435 0.024463654 0.009663299 -0.0499414 0.027536618 -0.0006742676
-0.04756544 -0.0891348 -0.12145877 -0.115221374 0.023856329 -0.008665589 -0.057895873 -0.023324033
-0.07974635 -0.094411656 0.013419004 0.039562047 -0.16511275 0.005021346 0.05333114 0.022428475
0.10005654 -0.11726146 0.04083607 -0.08452094 0.10341238 -0.09340146 -0.010549533 0.01788566
0.022914957 0.07050529 0.06442039 -0.08334194 0.02987874 -0.042176258 -0.035711393 0.118130185
0.032793276 0.08968543 0.085414976 0.057299096 -0.057700302 0.061712194 -0.082769625 -0.08058163
0.074634545 0.04056025 -0.093909875 0.017150434 0.039209317 -0.1062789 -0.06159994 0.08146862
0.025757167 0.0029120217 -0.021685356 0.03114377 0.07027458 -0.015550529 0.104766265 -0.06552994
0.08575919 -0.014242361 -0.0022564125 0.047064625 0.06516444 -0.08977352 0.078685425 0.06594451
0.012950062 0.064024925 -0.09617425 0.11799793 -0.078080185 -0.06213949 0.09977341 0.0118355155
-0.0628894 0.048619978 0.024807826 0.063466735 -0.018525515 0.08228494 0.075317286 0.08003888
-0.0002940424 0.064720176 -0.0066911704 -0.042876273 0.0014140867 0.09233314 0.112589695 0.12488872
0.084555894 -0.06802926 0.09804137 0.16690978 0.1253688 0.014756214 -0.06443418 0.033797827
0.13673195 -0.0671249 -0.059915062 0.092782415 0.14938918 -0.061292738 -0.08187054 0.052427787
-0.08092741 -0.005818533 -0.12010845 -0.06426659 -0.07056648 -0.1259768 -0.0994574 -0.08940435
0.04367008 -0.037926454 0.001241658 0.13521503 -0.009215264 -0.0170516 -0.09738168 -0.03235722
00000000: def9 4cbc 699a 473d 9849 773d 017f 243e
00000010: 16fe 383e 13ed 963c 1a8e 0b3e a62f 81bd
00000020: 7c27 73bd c39a 61bd c5d5 c6bc 38ca b0bd
00000030: d307 003e 3288 e63d 4f33 2ebd 0160 e03b
00000040: 250c 6f3d ea8f e43d 0fcd b73c b088 c13d
00000050: 4064 983d bfc7 bdbd 2a0d 92bd 2931 ab3d
00000060: 5d5a 573d dfb3 d93d afe1 f3bd f7dc c1bd
00000070: 4b68 41bd b6e6 a53d a426 8f3c f067 263c
00000080: 5f28 ffbc 8868 bcbd 4b31 053d 9d91 e9bd
00000090: 22e4 4d3d b47d 233e e6b8 4abd e297 cbbd
000000a0: 0ee2 8c3c fd3e 8e3d 002c 93bd 9161 813d
000000b0: eaef 523d ce48 97bd f66c 313d 3701 05be
000000c0: 511f c3bd 7eea 8d3c 7fb4 b5bd d595 10bd
000000d0: ba9e 09bd 5c8d 6bbd a502 fc3d dfe7 5f3c
000000e0: 35ee 723d 7330 62bb 3ed5 09be b945 19be
000000f0: 07b1 fb3c 8310 d7bd 2909 fe3d d40d f43d
00000100: dee1 2abe 6978 ee3c 4074 a8bd 82d7 04bc
00000110: d05f d33c c7b4 ccbd 1ba9 193d 90f5 a93a
00000120: 0461 46be a621 d7bd 7caa 833d 78fa bfbc
00000130: 630c 49bd 4848 093e 4bcb 8c3d 8f55 aebd
00000140: b591 1a3d e0d3 8e3d 122b 033e 1238 e43d
00000150: f34e e13d cddf e83d dff6 8c3d e211 8bbd
00000160: 193e 36bd af1d 633d 6948 96bd 8e82 83bd
00000170: 235f 02bd 5f40 04bb c943 e4bd 44bc bb3c
00000180: 9d84 65bb a3cf 9e3d d1da f6bd 520f 1dbc
00000190: 5c94 cbbd d9e2 803d 04f8 053e b64e 0dbd
000001a0: 45d2 4e3d 5b9f 47bd 02a0 393e a48b 353e
000001b0: 50e8 043e 62d4 0f3e 8305 df3d fdfb 2d3e
000001c0: 242e ac3b 5b29 f0b9 40d6 bebd 013e 0fbd
000001d0: ab5b a33b 3b57 0f3e acca 0ebc 9484 cbbd
000001e0: 70f8 3dbb a8d7 6b3d 9af1 e43d 7992 9ebc
000001f0: 1f5b b83c 16d3 d9bd 761d f93b 3621 a7bd
00000200: 2054 af3d 64ad 7a3d 601d c53d 0068 c83c
00000210: d052 1e3c 5a8f 4cbd 7994 e13c 55c1 30ba
00000220: fbd3 42bd 4e8c b6bd 60bf f8bd 2ff9 ebbd
00000230: 596e c33c 1dfa 0dbc 3924 6dbd 0b12 bfbc
00000240: 0e52 a3bd e65a c1bd 62db 5b3c d00b 223d
00000250: 5113 29be 1a8a a43b c171 5a3d ecbb b73c
00000260: 71ea cc3d c726 f0bd b943 273d 5119 adbd
00000270: dfc9 d33d 4449 bfbd f3d7 2cbc f384 923c
00000280: 26b8 bb3c 1465 903d d6ee 833d 2eaf aabd
00000290: 42c4 f43c 03c1 2cbd 1c46 12bd 3dee f13d
000002a0: 3e52 063d ffac b73d 0cee ae3d 75b2 6a3d
000002b0: 2757 6cbd edc5 7c3d 1f83 a9bd fb07 a5bd
000002c0: ffd9 983d 8122 263d d253 c0bd 117f 8c3c
000002d0: f399 203d c0a8 d9bd 3850 7cbd 05d9 a63d
000002e0: b200 d33c 9ed7 3e3b 7da5 b1bc 3821 ff3c
000002f0: 1eec 8f3d a5c7 7ebc b28f d63d 9034 86bd
00000300: 84a2 af3d cb58 69bc 52e0 13bb d6c6 403d
00000310: ef74 853d 2edb b7bd d325 a13d ea0d 873d
00000320: 7f2c 543c 801f 833d 01f7 c4bd e6a8 f13d
00000330: 81e8 9fbd fa85 7ebd 0056 cc3d c0e9 413c
00000340: 28cc 80bd be25 473d c839 cb3c d9fa 813d
00000350: d2c2 97bc 0285 a83d f33f 9a3d 6deb a33d
00000360: b429 9ab9 038c 843d 9b41 dbbb 089f 2fbd
00000370: e058 b93a 2819 bd3d 6d95 e63d a8c5 ff3d
00000380: a42b ad3d ed52 8bbd eac9 c83d 66ea 2a3e
00000390: ae60 003e 0cc4 713c 11f6 83bd 976f 0a3d
000003a0: 7603 0c3e c878 89bd 7f69 75bd b504 be3d
000003b0: 7af9 183e 180e 7bbd beab a7bd 85be 563d
000003c0: 45bd a5bd 64a9 bebb 6bfb f5bd 349e 83bd
000003d0: 2985 90bd 1000 01be 52b0 cbbd a119 b7bd
000003e0: 66df 323d c558 1bbd 21bf a23a cf75 0a3e
000003f0: 9efb 16bc ccaf 8bbc 0c70 c7bd 0189 04bd

seq.1.bias f4 [32]
-0.18728547 0.105411455 -0.075568095 -0.085126474 0.07009985 0.040183663 0.08234428 -0.043225992
0.12441738 -0.005110004 0.15031287 -0.1311668 -0.023390727 -0.16004074 0.041887622 0.030230977
0.08249074 -0.109427586 -0.13307746 0.12715843 0.08005547 0.048651803 0.11592945 0.010067133
-0.072211586 0.061458126 -0.21128517 0.03290635 -0.102298506 -0.011164156 0.06404723 -0.07252748
00000000: c3c7 3fbe f6e1 d73d 72c3 9abd ca56 aebd
00000010: 8390 8f3d a097 243d 1ea4 a83d bd0d 31bd
00000020: 8ace fe3d d271 a7bb 9eeb 193e 9750 06be
00000030: e99d bfbc b8e1 23be 5b92 2b3d f4a6 f73c
00000040: e8f0 a83d 921b e0bd 7545 08be d235 023e
00000050: 1ff4 a33d 1d47 473d 6b6c ed3d 9ef0 243c
00000060: abe3 93bd 84bb 7b3d 245b 58be cfc8 063d
00000070: e181 d1bd dde9 36bc 322b 833d 4a89 94bd

seq.4.weight f4 [64, 32, 3, 3]
0.10288413 0.020522628 0.045607295 0.009012018 0.0075885877 0.05951074 0.03641813 0.012858122
0.04468343 0.057461847 0.01236202 -0.0018349484 0.024270186 0.009320815 -0.06032379 -0.051411096
-0.05746472 0.02287946 -0.063199386 0.01699949 -0.032946788 -0.01456174 0.03713727 0.038489375
-0.027543828 -0.065481566 0.0104747 0.04051905 0.044215363 0.05003516 -0.030376911 0.028689355
0.022689814 0.018763242 0.020081325 -0.032308333 -0.06203397 -0.038992245 -0.01450511 -0.04968301
-0.069343194 -0.021604052 0.026604662 -0.0005716157 0.0016702461 0.021742767 0.014074062 -0.04468331
0.028510552 -0.017231407 0.04094447 0.022362046 -0.019764768 -0.018571131 0.02078257 -0.04406367
0.045791015 -0.04821472 -0.017786475 0.033504326 0.029953578 -0.029753959 -0.062242746 0.0670945
0.03437211 -0.018170748 0.064919375 -0.0006256591 0.06197397 -0.06886204 -0.042080995 -0.008952665
-0.043514222 -0.013374513 -0.07260839 -0.037662055 0.054671932 0.03470756 0.037939277 0.054843806
-0.06398535 -0.05262008 -0.028646551 0.060951382 0.07033638 0.05594983 0.019938165 0.045372106
-0.015377337 0.03737913 0.011534417 0.025846029 0.058684405 0.053208653 0.0675226 0.035792593
0.014601914 0.059422113 0.014132475 0.017016426 -0.022180352 -0.027623093 0.02323198 0.06613384
-0.033624455 0.03737306 0.030206617 0.041989356 0.06483972 0.052609038 0.0902685 0.061225664
0.028245922 -0.0039483425 -0.001420034 0.012656278 -0.026018418 0.061689124 0.04397394 0.002239522
0.05292278 0.0024223933 0.06680162 0.026981236 0.077374585 0.056813568 -0.047551937 -0.002637168
0.05839581 -0.050947558 0.010865824 -0.0034112441 -0.0026770628 -0.004487672 -0.050814092 0.054266725
0.030363956 -0.00075042073 -0.020711187 -0.026607467 -0.018102506 0.019271737 -0.027942402 -0.054776665
0.011735532 0.0015762851 -0.052221723 0.034924924 0.020679237 0.044319186 0.0021763754 0.058363833
0.02834732 0.09821483 0.10155389 0.10161417 -0.044084474 -0.007459818 0.05036344 -0.00014918798
-0.05605319 -0.04849718 -0.030164659 0.024657715 0.020611033 0.010327271 -0.018272612 -0.023541236
0.025085917 0.049832314 -0.039844226 -0.005133285 -0.059801336 -0.062140364 0.022145255 0.03121095
-0.0022804462 0.013510139 0.025516862 0.0647905 0.011291338 0.008715818 0.08010343 0.04642881
-0.02462757 -0.016682817 0.03555009 -0.028104194 0.06825655 0.0864529 0.092516206 0.07745562
0.08254671 0.041061763 0.06713041 0.03042128 0.013590174 -0.03615807 0.002319543 0.01632842
0.042680934 0.056692082 -0.034631282 -0.019061234 0.04585301 0.07750643 0.03826249 -0.07156935
-0.015393399 0.04874092 -0.006442699 0.009941686 0.011539341 -0.05841446 -0.07004187 -0.022250328
0.02185317 -0.014613868 0.027277993 -0.048089348 -0.075055964 -0.048569925 0.0006534594 -0.054079212
-0.02950381 -0.08938645 -0.042062297 -0.03344518 -0.0016299462 0.027807044 0.024505865 -0.026212411
0.015278044 -0.00033336028 -0.088857554 0.0025665795 0.025203064 -0.01587445 -0.040895086 -0.06477315
-0.007143574 -0.070752315 0.029119793 -0.023977414 0.029381324 0.004578013 -0.057373814 0.038627993
-0.048094973 -0.0017594167 -0.038472246 -0.031504184 -0.017190805 0.06124502 0.073258415 0.058214925
00000000: eab4 d23d 121f a83c b7ce 3a3d 25a7 133c
00000010: b0a9 f83b 89c1 733d 2d2b 153d dfaa 523c
00000020: f905 373d 1d5d 6b3d 128a 4a3c a782 f0ba
00000030: 45d2 c63c 55b6 183c 1416 77bd 7194 52bd
00000040: 2060 6bbd b56d bb3c ae6e 81bd 8442 8b3c
00000050: 36f3 06bd 5d94 6ebc 401d 183d 09a7 1d3d
00000060: 98a3 e1bc 331b 86bd 139e 2b3c 4ef7 253d
00000070: 2b1b 353d abf1 4c3d 00d9 f8bc f005 eb3c
00000080: fddf b93c 5fb5 993c 9781 a43c be55 04bd
00000090: 5517 7ebd 55b6 1fbd d7a6 6dbc 6980 4bbd
000000a0: ce03 8ebd fbfa b0bc 05f2 d93c 7bd8 15ba
000000b0: 29ec da3a e31d b23c e596 663c d905 37bd
000000c0: f68e e93c e128 8dbc 63b5 273d 9c30 b73c
000000d0: b9e9 a1bc 7c22 98bc 3540 aa3c 1b7c 34bd
000000e0: 5c8f 3b3d cc7c 45bd f1b4 91bc d53b 093d
000000f0: 3561 f53c 93be f3bc 40f2 7ebd d768 893d
00000100: c5c9 0c3d d2da 94bc 73f4 843d 4503 24ba
00000110: 6bd8 7d3d 8b07 8dbd 1f5d 2cbd 33ae 12bc
00000120: f83b 32bd c620 5bbc b5b3 94bd 8743 1abd
00000130: adef 5f3d 8429 0e3d 3766 1b3d e6a3 603d
00000140: c00a 83bd 2788 57bd 2cac eabc 28a8 793d
00000150: 850c 903d a62b 653d 5d55 a33c 1ad8 393d
00000160: 3af1 7bbc dc1a 193d dafa 3c3c 0dbb d33c
00000170: 0f5f 703d 51f1 593d 4a49 8a3d 419b 123d
00000180: de3c 6f3c 9a64 733d e58b 673c 0866 8b3c
00000190: 92b3 b5bc d349 e2bc fe50 be3c 2e71 873d
000001a0: ccb9 09bd 7e14 193d de73 f73c 08fd 2b3d
000001b0: b0ca 843d 937c 573d b1de b83d c3c7 7a3d
000001c0: fe63 e73c 1961 81bb 6f20 baba 475c 4f3c
000001d0: 9424 d5bc bcad 7c3d 051e 343d f2c4 123b
000001e0: 8fc5 583d 04c1 1e3b 4acf 883d c107 dd3c
000001f0: 9176 9e3d 58b5 683d d2c5 42bd 56d4 2cbb
00000200: 7230 6f3d 63ae 50bd 9206 323c 2e8f 5fbb
00000210: a971 2fbb 520d 93bb 7022 50bd c946 5e3d
00000220: d5bd f83c e2b7 44ba 82aa a9bc e7f7 d9bc
00000230: b54b 94bc c3df 9d3c 77e7 e4bc 7f5d 60bd
00000240: 6446 403c 5a9b ce3a 72e6 55bd 700d 0f3d
00000250: 8167 a93c 0988 353d 85a1 0e3b ea0e 6f3d
00000260: a438 e83c db24 c93d 7cfb cf3d 171b d03d
00000270: ec91 34bd 7d71 f4bb e549 4e3d 586f 1cb9
00000280: 0898 65bd fba4 46bd e01b f7bc fafe c93c
00000290: 78d8 a83c b733 293c 72b0 95bc 8dd9 c0bc
000002a0: fb80 cd3c f81c 4c3d b333 23bd 1e35 a8bb
000002b0: 3ff2 74bd e586 7ebd f769 b53c 1bae ff3c
000002c0: 8a73 15bb a159 5d3c bd08 d13c e2b0 843d
000002d0: 4eff 383c cacc 0e3c 440d a43d 232c 3e3d
000002e0: c2bf c9bc 67aa 88bc f99c 113d c43a e6bc
000002f0: 17ca 8b3d 380e b13d 2379 bd3d 0da1 9e3d
00000300: 400e a93d 6130 283d ab7b 893d 0c36 f93c
00000310: 52a9 5e3c 7c1a 14bd 7903 183b 2ec3 853c
00000320: 34d2 2e3d f535 683d 88d9 0dbd 4e26 9cbc
00000330: 5ed0 3b3d b1bb 9e3d 21b9 1c3d f492 92bd
00000340: 9834 7cbc 8fa4 473d 471d d3bb 74e2 223c
00000350: 810f 3d3c 0044 6fbd 1d72 8fbd 5246 b6bc
00000360: 6b05 b33c 016f 6fbc 1976 df3c 56f9 44bd
00000370: f1b6 99bd 42f1 46bd eb4c 2b3a 2a82 5dbd
00000380: f9b1 f1bc 3e10 b7bd 8449 2cbd d0fd 08bd
00000390: eba3 d5ba 99cb e33c 86c0 c83c 69bb d6bc
000003a0: c350 7a3c dcc6 aeb9 f3fa b5bd 0f34 283b
000003b0: a876 ce3c 220b 82bc 9b81 27bd c9a7 84bd
000003c0: a414 eabb 97e6 90bd a28c ee3c 486c c4bc
000003d0: 1ab1 f03c 2803 963b ce00 6bbd 6338 1e3d
000003e0: 3cff 44bd 3a9c e6ba 1395 1dbd 880a 01bd
000003f0: bbd3 8cbc 0fdc 7a3d 8208 963d c672 6e3d

seq.4.bias f4 [64]
-0.0053342995 0.03606903 0.0008401428 0.04059543 0.00910045 -0.026323782 -0.09255254 0.027926352
0.023169076 0.047261845 -0.09980373 -0.020268103 0.006942477 0.02467158 0.060300443 -0.04523678
0.058822583 -0.001284869 -0.0039025107 0.006616575 -0.04693431 0.038845427 0.017847257 0.023175769
0.056131054 0.028143732 0.00036999153 0.0024858448 0.06319423 -0.03763906 -0.02732274 0.026276559
-0.029469118 -0.0118162865 -0.03138023 -0.012637135 -0.02790266 -0.006446939 0.051138517 0.008080924
0.03046413 -0.0033441193 -0.027483823 0.024154592 -0.014717409 -0.023175199 0.025366575 0.035294488
0.02794959 0.025084313 -0.03081382 0.019060416 -0.063540995 -0.028868513 -0.0037222446 0.06909916
0.009515317 -0.042217072 -0.038478803 -0.015468842 -0.007921634 -0.013929587 -0.033661842 -0.044004794
00000000: 59cb aebb 1fbd 133d 073d 5c3a 6547 263d
00000010: 0e1a 153c f9a4 d7bc 308c bdbd cec5 e43c
00000020: 13cd bd3c a395 413d e665 ccbd 4b09 a6bc
00000030: b87d e33b 0e1c ca3c 99fd 763d 344a 39bd
00000040: f3ef 703d 0d69 a8ba 44c1 7fbb dbcf d83b
00000050: 313e 40bd 621c 1f3d 6934 923c 1cdb bd3c
00000060: ade9 653d af8d e63c 6cfb c139 8ee9 223b
00000070: fa6b 813d 6a2b 1abd f0d3 dfbc f041 d73c
00000080: 3869 f1bc 1999 41bc 8e88 00bd fc0b 4fbc
00000090: 1f94 e4bc d840 d3bb 9f76 513d da65 043c
000000a0: e98f f93c 0329 5bbb c125 e1bc dadf c53c
000000b0: 4a21 71bc ead9 bdbc 90cd cf3c f490 103d
000000c0: 8af6 e43c 9e7d cd3c 446d fcbc 9724 9c3c
000000d0: c821 82bd a97d ecbc e7f0 73bb dc83 8d3d
000000e0: 22e6 1b3c cfeb 2cbd f39b 1dbd 0771 7dbc
000000f0: bec9 01bc ec38 64bc 00e1 09bd 5f3e 34bd

seq.7.weight f4 [64, 64, 3, 3]
0.021682236 0.039274953 0.044644717 -0.03206154 0.03840302 0.03272585 0.014213127 0.038417462
0.039630644 -0.0057502333 -0.003645599 -0.030575521 -0.018181026 -0.06166263 0.022329275 -0.033816937
-0.03180484 0.00065612845 -0.010883237 0.014101062 0.013120102 0.025720691 -0.012717458 0.038561255
-0.016332915 -0.018863559 -0.037110582 -0.0008124357 -0.0014679985 0.028012775 -0.0090707 0.03148199
0.023424 0.009790679 -0.036221832 0.019848956 -0.06671484 0.010853952 0.03773138 -0.0035427788
-0.047101606 -0.034658004 -0.013139148 0.030526135 -0.008468688 0.044069134 0.017687224 -0.006234914
0.012817287 -0.06594225 -0.031002043 0.005691495 -0.0015132889 -0.018979618 0.033736456 -0.00536666
-0.04496198 0.019443767 -0.02889975 -0.03878195 0.037424497 0.0006550337 0.01605462 0.05074163
0.019558918 0.0023673968 0.039426133 0.06913758 -0.010155029 0.014762676 0.0010568363 0.060366854
-0.025203995 0.00054705574 -0.008346894 -0.022034053 -0.07780306 -0.0011626045 -0.018635659 -0.0045102187
-0.009696799 0.026716998 -0.03315082 0.042737298 0.020907871 -0.043342814 -0.016020706 0.006648605
0.012910319 -0.029394897 -0.037579924 0.02097719 0.020379338 0.036039714 -0.018299488 0.0048147035
-0.0014556318 -0.01108373 -0.04094657 2.4229761e-05 -0.01964126 -0.03324603 0.03057211 -0.008134388
7.472125e-05 0.022471333 0.036780562 -0.010875197 0.014120513 0.02653925 -0.0036808155 -0.04532799
0.031764477 -0.029643087 -0.019564835 -0.045199595 -0.014320795 0.020938268 -0.024350207 -0.023781395
0.01663514 -0.039587155 -0.025443697 -0.009589108 0.0040688156 0.013987537 0.026770659 -0.008580728
-0.044999857 -0.0072455946 -0.049136735 -0.048913687 -0.0149954045 0.0028832036 -0.0005559078 0.03273278
0.0050616576 -0.013083722 -0.0066912384 0.031964406 -0.0051820944 -0.023192847 -0.02141336 0.022694327
-0.014660406 -0.043215655 -0.0023875355 0.005443784 0.026523544 -0.0013042168 0.012817303 0.0059842225
0.023016598 -0.031369463 -0.037918106 -0.01620089 0.0067185694 0.006175693 0.040227987 -0.0026036878
0.029748622 -0.024997033 -0.010367684 0.009068649 -0.00065052597 0.01869118 0.054066423 -0.03267526
0.016582813 0.0585601 -0.01198576 -0.011106912 0.0104873525 -0.021295602 0.044088304 0.003658193
0.014440415 0.022521809 0.006398172 0.023987673 -0.0151341185 0.02022548 -0.026141118 0.0178118
0.018559817 -0.009984886 0.0019600103 -0.038924392 0.015418812 -0.014453327 -0.004965511 0.027581558
-0.008208985 0.00877491 0.030315232 -0.014658782 -0.010445414 -0.032357067 -0.056246962 -0.01763179
-0.03264365 -0.0001931073 -0.0029873704 -0.009563704 -0.021465069 0.028657444 -0.026279131 0.02216868
0.00013138252 0.00029295115 0.004673544 0.029219262 -0.0001436088 0.0073313112 -0.013304046 0.0015069521
-0.0023183876 0.011966638 0.047708932 -0.01589056 -0.027152639 0.014069703 -0.04767364 -0.011708346
0.008617283 -0.03566254 -0.045778964 -0.011763884 0.012001587 -0.021338787 0.023902839 -0.009289616
0.045882568 -0.024315348 0.019361895 -0.018320503 -0.024931056 -0.024133487 -0.046289813 0.025094317
0.027552655 -0.050387423 -0.03563649 0.044073686 0.029172776 0.032073732 -0.051783547 0.034029175
0.010268635 -0.0021698843 -0.054371715 -0.007526702 0.0035032856 -0.031086763 -0.0034722737 -0.010897956
00000000: f29e b13c c6de 203d 61dd 363d f652 03bd
00000010: 7c4c 1d3d 8a0b 063d 2dde 683c a15b 1d3d
00000020: be53 223d 746c bcbb 00eb 6ebb 8479 fabc
00000030: 60f0 94bc f491 7cbd e2eb b63c a183 0abd
00000040: cb45 02bd 0900 2c3a 9b4f 32bc 2408 673c
00000050: b2f5 563c 33b4 d23c e35c 50bc 68f2 1d3d
00000060: 9bcc 85bc c087 9abc 4401 18bd a3f9 54ba
00000070: db69 c0ba 0c7b e53c 469d 14bc 42f3 003d
00000080: b0e3 bf3c 1669 203c 585d 14bd 479a a23c
00000090: caa1 88bd c6d4 313c 388c 1a3d f72d 68bb
000000a0: 9ded 40bd 8df5 0dbd 9545 57bc f211 fa3c
000000b0: 41c0 0abc d681 343d cce4 903c 404e ccbb
000000c0: 99ff 513c bb0c 87bd fff7 fdbc b87f ba3b
000000d0: 8d59 c6ba 257b 9bbc 3d2f 0a3d cfda afbb
000000e0: 0e2a 38bd 8948 9f3c 2bbf ecbc d2d9 1ebd
000000f0: 6e4a 193d 91b6 2b3a fa84 833c 75d6 4f3d
00000100: 063a a03c 5426 1b3b 4c7d 213d 0198 8d3d
00000110: 4761 26bc 27df 713c 8b85 8a3a 3c43 773d
00000120: 9c78 cebc 4a68 0f3a 69c1 08bc c280 b4bc
00000130: 3657 9fbd 8962 98ba cfa9 98bc 75ca 93bb
00000140: 53df 1ebc 9bdd da3c 27c9 07bd 4e0d 2f3d
00000150: fc46 ab3c 3c88 31bd db3d 83bc 8bdc d93b
00000160: cd85 533c 91cd f0bc 68ed 19bd 5bd8 ab3c
00000170: 92f2 a63c 619e 133d cfe8 95bc a9c4 9d3b
00000180: e6ca beba 8898 35bc 97b7 27bd 0441 cb37
00000190: b5e6 a0bc fd2c 08bd 5d72 fa3c 1946 05bc
000001a0: aab3 9c38 cd15 b83c 37a7 163d e22d 32bc
000001b0: b959 673c d768 d93c d639 71bb d8a9 39bd
000001c0: 781b 023d 0fd6 f2bc 6f46 a0bc 3623 39bd
000001d0: c5a1 6abc bb86 ab3c 167a c7bc 33d1 c2bc
000001e0: 6b46 883c 2426 22bd 4d6f d0bc a21b 1dbc
000001f0: b353 853b fb2b 653c 244e db3c 2f96 0cbc
00000200: c551 38bd 746c edbb 9a43 49bd b859 48bd
00000210: 49af 75bc 21f4 3c3b 57ba 11ba cf12 063d
00000220: 43dc a53b 1c5d 56bc 2d42 dbbb 1ced 023d
00000230: 8fce a9bb edfe bdbc 126b afbc 74e9 b93c
00000240: 3332 70bc e602 31bd 3378 1cbb c561 b23b
00000250: e747 d93c 41f2 aaba aaff 513c 4c17 c43b
00000260: 4e8d bc3c 447d 00bd 0450 1bbd bbb7 84bc
00000270: 7227 dc3b 785d ca3b 1ac6 243d a2a2 2abb
00000280: 62b3 f33c 94c6 ccbc 38dd 29bc ac94 143c
00000290: 0f88 2aba 3f1e 993c c174 5d3d 7ed6 05bd
000002a0: aed8 873c b7dc 6f3d ec5f 44bc c4f9 35bc
000002b0: 25d3 2b3c 1d74 aebc f095 343d 4bbe 6f3b
000002c0: 7e97 6c3c a87f b83c c2a7 d13b cc81 c43c
000002d0: 18f5 77bc e8af a53c e625 d6bc 0dea 913c
000002e0: c20a 983c a697 23bc 8473 003b 2f6f 1fbd
000002f0: 2f9f 7c3c a6cd 6cbc bab5 a2bb b8f2 e13c
00000300: fb7e 06bc a4c4 0f3c a657 f83c 632b 70bc
00000310: 3e23 2bbc d888 04bd 3763 66bd 8b70 90bc
00000320: 59b5 05bd d97c 4ab9 c2c7 43bb 15b1 1cbc
00000330: 83d7 afbc 04c3 ea3c 5547 d7bc 179b b53c
00000340: bac3 0939 3d97 9939 8724 993b 3c5d ef3c
00000350: b295 16b9 7f3b f03b 37f9 59bc ec84 c53a
00000360: 17f0 17bb b80f 443c 716a 433d eb2c 82bc
00000370: 366f debc 9d84 663c 6f45 43bd 5dd4 3fbc
00000380: 812f 0d3c e212 12bd b982 3bbd 4ebd 40bc
00000390: 4ea2 443c aece aebc e3cf c33c 7933 18bc
000003a0: 5cef 3b3d fb30 c7bc d69c 9e3c e114 96bc
000003b0: 373c ccbc 97b3 c5bc 639a 3dbd 9992 cd3c
000003c0: 1bb6 e13c 0b63 4ebd 91f7 11bd 9c86 343d
000003d0: bffb ee3c bf5f 033d fc1a 54bd 2d62 0b3d
000003e0: c73d 283c 9e34 0ebb e0b4 5ebd 8da2 f6bb
000003f0: 6197 653b aba9 febc 168f 63bb 578d 32bc

seq.7.bias f4 [64]
0.04683679 -0.0115523515 0.0037521396 -0.022042528 -0.012391026 -0.012824251 -0.0102210175 -0.010526737
0.020342257 -0.017527042 0.031249357 0.04454651 0.0020701247 0.019434046 -0.048117712 -0.010991741
-0.01682463 0.03620601 0.0008611444 0.0041572372 -0.050687682 -0.02712082 0.006546841 -0.0372237
-0.030440513 0.056497827 0.016070832 -0.010242576 0.05828559 -0.0034627263 0.010991584 -0.028533034
-0.023352757 0.03490799 0.007667286 -0.008383609 0.006860091 -0.04788475 0.03526944 0.008072186
0.033710573 -0.042177003 -0.014593138 -0.013302876 -0.027878765 -0.0069941976 0.04355112 0.028389886
-0.001464556 0.02603922 -0.015544531 -0.03436942 -0.03914465 0.02641497 0.0019326527 0.01021679
0.048097372 0.03831255 -0.011225795 -0.024343815 -0.060645726 0.018113147 -0.032816436 0.013310078
00000000: efd7 3f3d 1346 3dbc 75e6 753b 8892 b4bc
00000010: bb03 4bbc cf1c 52bc 0e76 27bc 5678 2cbc
00000020: cea4 a63c df94 8fbc a7fe ff3c 6776 363d
00000030: eeaa 073b 2634 9f3c 1417 45bd b416 34bc
00000040: ced3 89bc c14c 143d 6cbe 613a 6f39 883b
00000050: e39d 4fbd 7b2c debc e286 d63b e177 18bd
00000060: 625e f9bc 446a 673d faa6 833c 7ad0 27bc
00000070: dfbc 6e3d e8ee 62bb 0b16 343c 1cbe e9bc
00000080: 484e bfbc aefb 0e3d db3d fb3b 685b 09bc
00000090: 9dca e03b cd22 44bd b076 103d 3441 043c
000000a0: 1914 0a3d cbc1 2cbd 0f18 6fbc 4ef4 59bc
000000b0: 0262 e4bc 952f e5bb a962 323d e891 e83c
000000c0: 58f6 bfba 3450 d53c 7dae 7ebc f3c6 0cbd
000000d0: 2456 20bd 3564 d83c 1051 fd3a 5364 273c
000000e0: c001 453d 9fed 1c3d 66ec 37bc ae6c c7bc
000000f0: a767 78bd 0662 943c 876a 06bd 8312 5a3c

seq.9.weight f4 [3, 256]
-0.1017645 -0.09217566 0.0015819641 -0.13966781 -0.009094504 -0.08521028 -0.118921414 -0.13698147
0.043321338 0.17580251 -0.10338225 0.047009766 -0.13448843 -0.14984162 0.049550768 0.050466597
0.08582009 0.0038611197 -0.14679898 0.06571522 -0.1558804 0.18539736 -0.15720515 -0.065936945
-0.007034191 0.03701226 -0.07091808 -0.173501 0.06052589 -0.051464092 -0.02973568 -0.12814437
0.16530643 -0.059722636 -0.093821675 0.035718087 -0.15611942 0.103838906 -0.07531715 0.06604352
0.012927807 -0.05692511 0.017496854 0.11137379 -0.0512723 0.0811408 0.104685135 -0.040580254
-0.026635109 -0.014820134 -0.103173845 0.10209883 -0.12339104 0.01944685 -0.07794685 -0.11796883
-0.14715791 -0.0468977 -0.11659527 -0.15130937 0.16230354 0.0924751 0.0067891516 -0.048098054
-0.014635218 0.04989248 0.07404932 0.018874671 0.0048846663 -0.18602142 -0.07149571 -0.02375114
0.017629262 -0.0074925176 -0.006494411 -0.0783976 0.071010865 -0.054807276 -0.0058391658 0.0042631743
-0.117661655 -0.1272052 0.047061205 -0.06420709 -0.059737384 0.042626534 -0.24869463 -0.06685881
0.06419928 -0.032218903 0.06832213 0.05354815 -0.08129955 -0.111328356 -0.22688764 -0.12134879
-0.12702432 -0.1378881 -0.1412556 0.0020001435 -0.112882756 -0.0611964 0.16252519 0.03646732
0.0038178326 0.034324024 -0.20140627 -0.09323822 -0.06597057 0.052574214 -0.10529161 -0.119337805
0.1749592 0.15041858 -0.14373033 -0.036522817 0.059037488 0.003928299 0.09982638 -0.048842408
-0.115101986 0.025506472 0.1906674 -0.08987258 0.021734297 0.0034971465 -0.0291075 -0.14659968
0.07982462 -0.04294295 -0.020077888 -0.089975685 0.023152899 -0.017902836 0.110396184 0.12951875
0.18658358 0.04399628 -0.038405083 0.21686313 0.052709587 -0.010292577 0.048596468 -0.08966666
0.13945411 0.02743744 0.015965456 0.021751203 -0.019163875 0.058144905 -0.0058985897 -0.074743316
-0.098015554 -0.09458736 -0.065914474 -0.029839024 -0.12625411 0.028074779 0.020090045 -0.090211585
-0.02915557 0.0041826745 -0.06533534 -0.00043305056 -0.13843219 -0.15966295 -0.020772645 0.014769749
0.027027626 0.022025464 0.043137476 0.09838565 -0.08065519 0.029119508 0.09812227 -0.020883268
0.009331412 0.072390065 -0.09951475 -0.01851065 0.0012926306 0.09779268 0.07562829 0.12324624
-0.1069518 -0.15475024 0.023074223 0.10465396 0.2076702 -0.05539939 0.06674584 0.19819158
0.16702995 0.17126049 -0.2945674 -0.12050759 0.13355988 0.089296155 -0.121422626 -0.03866754
0.011703599 0.122110754 0.09728692 -0.13288434 -0.07210415 0.034759652 0.13591138 -0.0011530193
0.056890387 0.11044832 0.13226636 0.012591593 0.0045646857 0.13379404 0.07192253 0.02120131
0.15661518 0.15716554 -0.07914055 -0.022344127 -0.023747016 -0.03588787 -0.06116115 -0.18912639
0.021116225 0.09285427 0.019277552 -0.023648055 0.12701839 0.11416928 0.116116054 0.19174677
-0.023772826 -0.07869667 -0.18657766 0.16138433 -0.14415659 0.027216319 0.020372216 0.009927476
-0.038001746 -0.26352733 0.019304443 0.07760478 -0.055124745 -0.0012138333 -0.09145401 -0.032149747
-0.0035820208 0.1414128 0.10462999 -0.16617756 0.06230038 0.06127584 -0.10181061 -0.20073038
00000000: e869 d0bd 98c6 bcbd e859 cf3a 1405 0fbe
00000010: 1d01 15bc ba82 aebd 128d f3bd df44 0cbe
00000020: b771 313d 9305 343e 13ba d3bd 508d 403d
00000030: 56b7 09be 1570 19be bff5 4a3d 10b6 4e3d
00000040: 71c2 af3d d70a 7d3b 7952 16be b495 863d
00000050: 1d9f 1fbe ced8 3d3e 63fa 20be f309 87bd
00000060: 127f e6bb 2b9a 173d 803d 91bd 3faa 31be
00000070: ffe9 773d 03cc 52bd 3e98 f3bc 4738 03be
00000080: 1746 293e b99f 74bd 9425 c0bd 214d 123d
00000090: c5dd 1fbe 7ea9 d43d e13f 9abd d341 873d
000000a0: 27cf 533c 4e2a 69bd 9055 8f3c f117 e43d
000000b0: e702 52bd 262d a63d 2965 d63d 7b37 26bd
000000c0: df31 dabc 26d0 72bc cf4c d3bd 3119 d13d
000000d0: 71b4 fcbd 004f 9f3c 99a2 9fbd a499 f1bd
000000e0: 90b0 16be cd17 40bd 80c9 eebd d8f0 1abe
000000f0: e632 263e 9663 bd3d 8877 de3b 7702 45bd
00000100: 8ec8 6fbc 0f5c 4c3d 2ba7 973d 0e9f 9a3c
00000110: 8d0f a03b 667c 3ebe 586c 92bd c091 c2bc
00000120: 3e6b 903c cb83 f5bb 11cf d4bb ec8e a0bd
00000130: 256e 913d 987d 60bd 7956 bfbb 19b2 8b3b
00000140: 98f8 f0bd 1442 02be 40c3 403d 027f 83bd
00000150: 30af 74bd 2999 2e3d cea9 7ebe 46ed 88bd
00000160: ea7a 833d f8f7 03bd 79ec 8b3d 4e55 5b3d
00000170: 6180 a6bd 1f00 e4bd 3c55 68be b785 f8bd
00000180: aa12 02be 8a32 0dbe 4fa5 10be d714 033b
00000190: 132f e7bd 14a9 7abd 016d 263e c25e 153d
000001a0: 9a34 7a3b 5997 0c3d 723d 4ebe aef3 bebd
000001b0: 941b 87bd 0f58 573d 21a3 d7bd 6167 f4bd
000001c0: 8128 333e 5407 1a3e 0b2e 13be f398 15bd
000001d0: 4bd1 713d f6b8 803b c671 cc3d fa0e 48bd
000001e0: 97ba ebbd f3f2 d03c 513e 433e 1d0f b8bd
000001f0: 200c b23c 6230 653b da72 eebc 3a1e 16be
00000200: 177b a33d f2e4 2fbd 627a a4bc 2c45 b8bd
00000210: 26ab bd3c f8a8 92bc 6517 e23d 90a0 043e
00000220: c40f 3f3e 7135 343d a64e 1dbd 5e11 5e3e
00000230: 02e6 573d 32a2 28bc 170d 473d 27a3 b7bd
00000240: 0fcd 0e3e 7bc4 e03c fdc9 823c 942f b23c
00000250: 8ffd 9cbc 5a29 6e3d f548 c1bb 0613 99bd
00000260: 61bc c8bd 05b7 c1bd 2bfe 86bd f870 f4bc
00000270: c248 01be 14fd e53c e193 a43c dac0 b8bd
00000280: a9d7 eebc d10e 893b 89ce 85bd 100b e3b9
00000290: 2bc1 0dbe af7e 23be 652b aabc d1fc 713c
000002a0: 0a69 dd3c bf6e b43c ecb0 303d 6a7e c93d
000002b0: 8c2e a5bd 098c ee3c 54f4 c83d 6313 abbc
000002c0: c7e2 183c 3e41 943d 64ce cbbd a6a3 97bc
000002d0: 7c6d a93a 8747 c83d 01e3 9a3d 8668 fc3d
000002e0: 8c09 dbbd d976 1ebe 2706 bd3c d154 d63d
000002f0: 7fa7 543e 79ea 62bd 0bb2 883d bcf2 4a3e
00000300: e609 2b3e e95e 2f3e 8ad1 96be afcc f6bd
00000310: ecc3 083e e7e0 b63d 6dac f8bd db61 1ebd
00000320: 74c0 3f3c 3415 fa3d 5d3e c73d d512 08be
00000330: 57ab 93bd 2360 0e3d 5a2c 0b3e e820 97ba
00000340: e505 693d bb32 e23d d570 073e f84c 4e3c
00000350: 5c93 953b 4e01 093e 1f4c 933d 5fae ad3c
00000360: bb5f 203e 01f0 203e 7114 a2bd 080b b7bc
00000370: 1a89 c2bc 29ff 12bd 1d84 7abd 59aa 41be
00000380: effb ac3c 612a be3d f5eb 9d3c 91b9 c1bc
00000390: 1c11 023e 95d1 e93d 41ce ed3d 4459 443e
000003a0: 3bbf c2bc b82b a1bd 370e 3fbe ef41 253e
000003b0: c99d 13be c2f4 de3c a2e3 a63c daa6 223c
000003c0: b8a7 1bbd 0eed 86be 5a24 9e3c 41ef 9e3d
000003d0: 7cca 61bd 7d19 9fba 3d4c bbbd 74af 03bd
000003e0: 56c0 6abb 84ce 103e 4048 d63d 732a 2abe
000003f0: af2e 7f3d 60fc 7a3d 1582 d0bd 448c 4dbe

seq.9.bias f4 [3]
0.08690781 -0.14473648 0.08042559
00000000: b9fc b13d cd35 14be 2cb6 a43d
