РНС/Лаб 2/cifar100_CNN (1).onnx (onnx, 124206 bytes, 4 tensors)

seq.0.weight f4 [10, 3072]
0.39761463 0.6253393 0.96900916 0.83370817 0.912517 0.6297095 0.4615816 0.46754813
0.8922691 0.83976316 0.66516376 0.8879823 0.64253 0.6090908 0.97917086 0.6321536
0.9742179 0.9004233 0.39940816 0.5693824 0.64183503 0.7188391 0.61510754 0.41589174
0.20167208 0.93043643 0.84893864 0.5060035 0.78122324 0.93334156 0.85404533 0.47890237
0.666714 0.8317615 0.6330783 0.52188057 0.935225 0.41536197 0.5076259 0.7073971
0.59814954 1.1470677 0.75460243 0.65672237 0.61448294 0.74418217 0.6316892 0.71368784
0.79957193 0.81042945 0.9836073 0.5653904 0.9048225 0.7025264 0.71597934 0.9065287
0.72693413 0.9401677 0.8063212 1.0500444 0.64088184 0.92423856 0.8397566 0.57009035
0.3824682 0.93994474 0.54687816 0.39513996 0.6930941 0.7021259 0.96400917 0.5357618
0.35065302 0.94700944 0.71191406 0.23419574 0.98792624 0.74022704 0.84946835 0.45979705
0.87736005 0.103801236 0.9132031 0.4644337 0.6981439 0.4793826 0.8772711 0.935661
0.741222 0.6704469 0.9038435 0.3671893 0.5837263 0.43763763 0.4620932 0.8207485
0.7619862 1.0157757 0.7948765 0.79054534 0.70257246 0.72312593 0.079580955 0.6981344
0.49667582 0.057190623 0.5335994 1.0093616 0.72375154 0.72037965 0.64919126 0.7081901
0.78636354 0.49724472 0.3159671 0.70901716 0.60075855 0.87901914 0.8769259 0.96256644
0.3200907 0.8940728 0.5115153 0.76306623 0.78347045 0.68870324 0.3458056 0.680316
1.0546046 0.5515313 0.7391048 0.7289712 0.45727247 0.66061765 0.7933342 0.91471577
0.84656763 0.98140585 0.45216745 1.0040177 0.8056096 0.9614585 0.7251607 0.9424847
0.91530216 0.98126775 0.9555891 0.6797746 0.735493 0.6203381 0.92395025 0.53801095
1.1333885 0.6086888 0.5214642 1.0307679 0.6139103 0.5001133 0.7322822 0.37066925
0.45431235 1.0029088 0.44076014 1.020827 1.031802 0.43883443 0.9424431 0.98724115
0.39830652 0.87476045 0.92042476 0.18482095 0.95633733 0.6542901 0.7075041 0.69665426
0.9567715 0.30991063 0.8853824 0.44076782 0.060131405 0.8918354 0.360524 0.22212261
0.9261263 0.6811377 0.26304877 0.7811544 0.70227385 0.18921441 0.96221346 0.9731278
0.78529876 0.84801334 0.86728287 0.1267453 0.61137164 0.549477 0.7710805 0.46727958
0.76475817 0.1605256 0.3419 0.3200799 0.11817083 0.2905439 0.28886873 0.41013983
0.7068057 0.75651133 0.8057399 0.3094618 0.8378649 0.32478535 0.9317602 0.50087404
0.12972987 0.40279105 0.7754307 0.7616729 0.7896566 0.9717264 0.73544574 0.781206
0.4089992 0.7659012 0.7216382 0.4751516 0.39990312 1.1797631 0.9679509 0.87666947
0.6090644 0.9281836 0.9616392 1.1304264 1.0458549 0.8855608 1.0991676 0.594465
0.8097626 1.0135331 0.67511535 0.7202549 0.78137946 0.89956504 0.16607088 0.8773959
0.88198364 0.6423665 0.65753394 0.45380408 0.2724235 0.9935672 0.7312735 0.3928724
00000000: 2594 cb3e 3d16 203f fc10 783f e66d 553f
00000010: b79a 693f a434 213f 6c54 ec3e 7862 ef3e
00000020: bf6b 643f b8fa 563f 2c48 2a3f cf52 633f
00000030: d97c 243f 60ed 1b3f f1aa 7a3f d1d4 213f
00000040: 5866 793f 2482 663f 3a7f cc3e 0cc3 113f
00000050: 4d4f 243f d705 383f b077 1d3f c3ef d43e
00000060: 2083 4e3e 1531 6e3f 0b54 593f 7289 013f
00000070: 3ffe 473f 79ef 6e3f b7a2 5a3f b132 f53e
00000080: c5ad 2a3f 52ee 543f 6b11 223f f799 053f
00000090: e86a 6f3f 53aa d43e c5f3 013f fa17 353f
000000a0: 5420 193f 1dd3 923f a02d 413f f51e 283f
000000b0: c14e 1d3f b982 3e3f 62b6 213f 3fb4 363f
000000c0: bfb0 4c3f 4e78 4f3f b0cd 7b3f 6dbd 103f
000000d0: 73a2 673f c5d8 333f 6c4a 373f 4412 683f
000000e0: 5b18 3a3f d5ae 703f 116b 4e3f db67 863f
000000f0: d510 243f e69a 6c3f 4afa 563f 71f1 113f
00000100: dfd2 c33e 38a0 703f 3500 0c3f c94f ca3e
00000110: 9d6e 313f 86be 333f 4ec9 763f af27 093f
00000120: cb88 b33e 366f 723f 0040 363f 02d1 6f3e
00000130: bce8 7c3f 857f 3d3f c276 593f 856a eb3e
00000140: ab9a 603f be95 d43d aec7 693f 41ca ed3e
00000150: 8fb9 323f a371 f53e d794 603f 7b87 6f3f
00000160: bac0 3d3f 68a2 2b3f 4a62 673f 3c00 bc3e
00000170: 166f 153f 0a12 e03e 7b97 ec3e 931c 523f
00000180: 8711 433f f004 823f 077d 4b3f 2e61 4a3f
00000190: cadb 333f c81e 393f 57fb a23d f0b8 323f
000001a0: 4b4c fe3e b740 6a3d f899 083f c332 813f
000001b0: c847 393f cd6a 383f 6631 263f f24b 353f
000001c0: 1f4f 493f dc96 fe3e 71c6 a13e 2682 353f
000001d0: 50cb 193f 6607 613f 377e 603f c16a 763f
000001e0: eee2 a33e f4e1 643f abf2 023f 4f58 433f
000001f0: 8591 483f db4e 303f 6e0d b13e 3029 2e3f
00000200: 49fd 863f 2831 0d3f f935 3d3f db9d 3a3f
00000210: 9e1f ea3e 3d1e 293f f317 4b3f d02a 6a3f
00000220: a8b8 583f 6a3d 7b3f 7e82 e73e a783 803f
00000230: 6e3c 4e3f 2522 763f 22a4 393f ad46 713f
00000240: 3e51 6a3f 5d34 7b3f 7da1 743f b505 2e3f
00000250: 4549 3c3f 7ace 1e3f 0188 6c3f 16bb 093f
00000260: e012 913f 07d3 1b3f ae7e 053f 34f0 833f
00000270: 3a29 1d3f 6d07 003f d976 3b3f 5cc8 bd3e
00000280: a19b e83e 515f 803f 50ab e13e 76aa 823f
00000290: 1712 843f e8ae e03e f343 713f d6bb 7c3f
000002a0: d5ee cb3e 4df0 5f3f f5a0 6b3f b441 3d3e
000002b0: 86d2 743f 8e7f 273f fd1e 353f ef57 323f
000002c0: faee 743f 9bac 9e3e 6ca8 623f 52ac e13e
000002d0: 594c 763d 534f 643f 9a96 b83e 1c74 633e
000002e0: 9d16 6d3f 0a5f 2e3f 54ae 863e bcf9 473f
000002f0: 38c8 333f 6cc1 413e 9f53 763f e71e 793f
00000300: 5709 493f 6717 593f 4006 5e3f 85c9 013e
00000310: da82 1c3f 86aa 0c3f 8865 453f 453f ef3e
00000320: 31c7 433f d360 243e 840d af3e 83e1 a33e
00000330: 8c03 f23d 2cc2 943e 9ae6 933e d9fd d13e
00000340: 38f1 343f baaa 413f f844 4e3f c771 9e3e
00000350: 507e 563f 444a a63e d687 6e3f 4839 003f
00000360: e8d7 043e a13a ce3e a082 463f fffc 423f
00000370: ef26 4a3f 10c3 783f 2c46 3c3f 1efd 473f
00000380: 5868 d13e 1a12 443f 48bd 383f 1247 f33e
00000390: 1ac0 cc3e 7a02 973f a1cb 773f 696d 603f
000003a0: a5eb 1b3f 719d 6d3f fd2d 763f d0b1 903f
000003b0: 93de 853f 1db4 623f 86b1 8c3f dc2e 183f
000003c0: 9a4c 4f3f 74bb 813f 5cd4 2c3f a062 383f
000003d0: 7c08 483f e549 663f 7c0e 2a3e 059d 603f
000003e0: aec9 613f 2272 243f 2554 283f 0259 e83e
000003f0: 187b 8b3e 6c5a 7e3f bd34 3b3f 9226 c93e

seq.0.bias f4 [10]
0.023143273 0.005786835 0.014427564 -0.00046211772 -0.009145559 -0.012652793 0.014067403 0.0022937157
-0.000121369856 -0.011549786
00000000: f696 bd3c 7e9f bd3b 9761 6c3c 6448 f2b9
00000010: 41d7 15bc a94d 4fbc f77a 663c 2a52 163b
00000020: f287 feb8 503b 3dbc

seq.2.weight f4 [3, 10]
0.3679302 -0.17898747 0.02848213 0.06825163 -0.3574352 -0.18773235 -0.0633054 -0.046311606
-0.032350127 -0.30665147 0.00038648516 -0.13494724 0.35760084 -0.066252716 -0.13424242 -0.09464215
-0.20562707 0.13648258 -0.21469837 0.32519317 -0.3334797 0.1953209 -0.0768104 0.03131668
0.18275683 -0.17377606 0.20180458 -0.3693444 -0.17634763 0.31749037
00000000: 5961 bc3e 7e48 37be 5b53 e93c 83c7 8b3d
00000010: bf01 b7be e93c 40be 43a6 81bd 3db1 3dbd
00000020: 9181 04bd 6c01 9dbe 29a1 ca39 9c2f 0abe
00000030: 7517 b73e 81af 87bd d876 09be bed3 c1bd
00000040: e78f 52be 17c2 0b3e e4d9 5bbe b87f a63e
00000050: dabd aabe 3402 483e c54e 9dbd eb45 003d
00000060: 9b24 3b3e 5af2 31be dca5 4e3e b61a bdbe
00000070: 7994 34be 198e a23e

seq.2.bias f4 [3]
0.26072422 0.042860553 0.009914147
00000000: a57d 853e 8c8e 2f3d f26e 223c
